…
Global rank 1 initialized: local_rank = 1, world_size = 4
Global rank 2 initialized: local_rank = 2, world_size = 4
Global rank 3 initialized: local_rank = 3, world_size = 4
Files already downloaded and verified
Files already downloaded and verified
==========================================================================================
Layer (type:depth-idx)                   Output Shape              Param #
==========================================================================================
ResNet                                   --                        --
├─Conv2d: 1-1                            [8, 16, 32, 32]           432
├─BatchNorm2d: 1-2                       [8, 16, 32, 32]           32
├─Sequential: 1-3                        [8, 16, 32, 32]           --
│    └─BasicBlock: 2-1                   [8, 16, 32, 32]           --
│    │    └─Conv2d: 3-1                  [8, 16, 32, 32]           2,304
│    │    └─BatchNorm2d: 3-2             [8, 16, 32, 32]           32
│    │    └─Conv2d: 3-3                  [8, 16, 32, 32]           2,304
│    │    └─BatchNorm2d: 3-4             [8, 16, 32, 32]           32
│    │    └─Sequential: 3-5              [8, 16, 32, 32]           --
│    └─BasicBlock: 2-2                   [8, 16, 32, 32]           --
│    │    └─Conv2d: 3-6                  [8, 16, 32, 32]           2,304
│    │    └─BatchNorm2d: 3-7             [8, 16, 32, 32]           32
│    │    └─Conv2d: 3-8                  [8, 16, 32, 32]           2,304
│    │    └─BatchNorm2d: 3-9             [8, 16, 32, 32]           32
│    │    └─Sequential: 3-10             [8, 16, 32, 32]           --
│    └─BasicBlock: 2-3                   [8, 16, 32, 32]           --
│    │    └─Conv2d: 3-11                 [8, 16, 32, 32]           2,304
│    │    └─BatchNorm2d: 3-12            [8, 16, 32, 32]           32
│    │    └─Conv2d: 3-13                 [8, 16, 32, 32]           2,304
│    │    └─BatchNorm2d: 3-14            [8, 16, 32, 32]           32
│    │    └─Sequential: 3-15             [8, 16, 32, 32]           --
│    └─BasicBlock: 2-4                   [8, 16, 32, 32]           --
│    │    └─Conv2d: 3-16                 [8, 16, 32, 32]           2,304
│    │    └─BatchNorm2d: 3-17            [8, 16, 32, 32]           32
│    │    └─Conv2d: 3-18                 [8, 16, 32, 32]           2,304
│    │    └─BatchNorm2d: 3-19            [8, 16, 32, 32]           32
│    │    └─Sequential: 3-20             [8, 16, 32, 32]           --
│    └─BasicBlock: 2-5                   [8, 16, 32, 32]           --
│    │    └─Conv2d: 3-21                 [8, 16, 32, 32]           2,304
│    │    └─BatchNorm2d: 3-22            [8, 16, 32, 32]           32
│    │    └─Conv2d: 3-23                 [8, 16, 32, 32]           2,304
│    │    └─BatchNorm2d: 3-24            [8, 16, 32, 32]           32
│    │    └─Sequential: 3-25             [8, 16, 32, 32]           --
├─Sequential: 1-4                        [8, 32, 16, 16]           --
│    └─BasicBlock: 2-6                   [8, 32, 16, 16]           --
│    │    └─Conv2d: 3-26                 [8, 32, 16, 16]           4,608
│    │    └─BatchNorm2d: 3-27            [8, 32, 16, 16]           64
│    │    └─Conv2d: 3-28                 [8, 32, 16, 16]           9,216
│    │    └─BatchNorm2d: 3-29            [8, 32, 16, 16]           64
│    │    └─LambdaLayer: 3-30            [8, 32, 16, 16]           --
│    └─BasicBlock: 2-7                   [8, 32, 16, 16]           --
│    │    └─Conv2d: 3-31                 [8, 32, 16, 16]           9,216
│    │    └─BatchNorm2d: 3-32            [8, 32, 16, 16]           64
│    │    └─Conv2d: 3-33                 [8, 32, 16, 16]           9,216
│    │    └─BatchNorm2d: 3-34            [8, 32, 16, 16]           64
│    │    └─Sequential: 3-35             [8, 32, 16, 16]           --
│    └─BasicBlock: 2-8                   [8, 32, 16, 16]           --
│    │    └─Conv2d: 3-36                 [8, 32, 16, 16]           9,216
│    │    └─BatchNorm2d: 3-37            [8, 32, 16, 16]           64
│    │    └─Conv2d: 3-38                 [8, 32, 16, 16]           9,216
│    │    └─BatchNorm2d: 3-39            [8, 32, 16, 16]           64
│    │    └─Sequential: 3-40             [8, 32, 16, 16]           --
│    └─BasicBlock: 2-9                   [8, 32, 16, 16]           --
│    │    └─Conv2d: 3-41                 [8, 32, 16, 16]           9,216
│    │    └─BatchNorm2d: 3-42            [8, 32, 16, 16]           64
│    │    └─Conv2d: 3-43                 [8, 32, 16, 16]           9,216
│    │    └─BatchNorm2d: 3-44            [8, 32, 16, 16]           64
│    │    └─Sequential: 3-45             [8, 32, 16, 16]           --
│    └─BasicBlock: 2-10                  [8, 32, 16, 16]           --
│    │    └─Conv2d: 3-46                 [8, 32, 16, 16]           9,216
│    │    └─BatchNorm2d: 3-47            [8, 32, 16, 16]           64
│    │    └─Conv2d: 3-48                 [8, 32, 16, 16]           9,216
│    │    └─BatchNorm2d: 3-49            [8, 32, 16, 16]           64
│    │    └─Sequential: 3-50             [8, 32, 16, 16]           --
├─Sequential: 1-5                        [8, 64, 8, 8]             --
│    └─BasicBlock: 2-11                  [8, 64, 8, 8]             --
│    │    └─Conv2d: 3-51                 [8, 64, 8, 8]             18,432
│    │    └─BatchNorm2d: 3-52            [8, 64, 8, 8]             128
│    │    └─Conv2d: 3-53                 [8, 64, 8, 8]             36,864
│    │    └─BatchNorm2d: 3-54            [8, 64, 8, 8]             128
│    │    └─LambdaLayer: 3-55            [8, 64, 8, 8]             --
│    └─BasicBlock: 2-12                  [8, 64, 8, 8]             --
│    │    └─Conv2d: 3-56                 [8, 64, 8, 8]             36,864
│    │    └─BatchNorm2d: 3-57            [8, 64, 8, 8]             128
│    │    └─Conv2d: 3-58                 [8, 64, 8, 8]             36,864
│    │    └─BatchNorm2d: 3-59            [8, 64, 8, 8]             128
│    │    └─Sequential: 3-60             [8, 64, 8, 8]             --
│    └─BasicBlock: 2-13                  [8, 64, 8, 8]             --
│    │    └─Conv2d: 3-61                 [8, 64, 8, 8]             36,864
│    │    └─BatchNorm2d: 3-62            [8, 64, 8, 8]             128
│    │    └─Conv2d: 3-63                 [8, 64, 8, 8]             36,864
│    │    └─BatchNorm2d: 3-64            [8, 64, 8, 8]             128
│    │    └─Sequential: 3-65             [8, 64, 8, 8]             --
│    └─BasicBlock: 2-14                  [8, 64, 8, 8]             --
│    │    └─Conv2d: 3-66                 [8, 64, 8, 8]             36,864
│    │    └─BatchNorm2d: 3-67            [8, 64, 8, 8]             128
│    │    └─Conv2d: 3-68                 [8, 64, 8, 8]             36,864
│    │    └─BatchNorm2d: 3-69            [8, 64, 8, 8]             128
│    │    └─Sequential: 3-70             [8, 64, 8, 8]             --
│    └─BasicBlock: 2-15                  [8, 64, 8, 8]             --
│    │    └─Conv2d: 3-71                 [8, 64, 8, 8]             36,864
│    │    └─BatchNorm2d: 3-72            [8, 64, 8, 8]             128
│    │    └─Conv2d: 3-73                 [8, 64, 8, 8]             36,864
│    │    └─BatchNorm2d: 3-74            [8, 64, 8, 8]             128
│    │    └─Sequential: 3-75             [8, 64, 8, 8]             --
├─Linear: 1-6                            [8, 10]                   650
==========================================================================================
Total params: 464,154
Trainable params: 464,154
Non-trainable params: 0
Total mult-adds (M): 550.92
==========================================================================================
Input size (MB): 0.10
Forward/backward pass size (MB): 38.80
Params size (MB): 1.86
Estimated Total Size (MB): 40.75
==========================================================================================
…
